TEST_RUN_dst/model_100.pt (torch, 34003 bytes, 7 tensors)

weight f4 [64, 110]
00000000: ac49 833f e893 b73f 397f 04c0 6393 83c0
00000010: ccd3 3440 dda0 8d40 8587 883e 11c2 843e
00000020: e1f7 463d 27b6 5840 18aa c13c c61d 8c3f
00000030: e0e9 353e 1891 72bd f851 e83f 1c66 03bf
00000040: b7c4 b240 0383 5fbd 8edd fd3d 6459 8840
00000050: 9479 b73d fc8e afbd 34db 583f c7c2 a43f
00000060: 4d1e bfbf 047c e83e 6653 813f 5eeb 8b3f
00000070: e552 133c ec87 9a40 e8ca 563d d83e 003d
00000080: 6040 733d c495 17be d6ad d43e aeb3 b93f
00000090: 944b 4340 4def 963f bc08 8540 022d b440
000000a0: 7cbd 173d 5699 6bbd 0496 213d 74b4 463d
000000b0: 9ced bf3d a1d1 95bd fcc5 a13f 83f7 f340
000000c0: fb2d 8b40 30e9 af40 e034 ff3c 8050 003d
000000d0: be57 b1bd f064 7ebc 0805 02bc ba53 b73d
000000e0: e418 993f 3fdb 143f 90d8 0741 57b3 ca40
000000f0: 20f4 79bc 9022 f83c 48f7 7e3d 5eec 8bbd
00000100: 9930 75bd e128 b5bd 2635 6a40 917d c43e
00000110: 6ea2 a43f b2f4 bc40 e967 bcbd 7cf2 8c3d
00000120: d22b babd 570b 1cbd 708d fd3c 68fb 44bc
00000130: 2864 a33d 20fa 623b 5899 4c3f 8ec2 c040
00000140: ac23 0b3d d01c e43c 6ad2 8cbd 54d1 8dbd
00000150: 6004 543b e400 81bd 9ea3 00bd 1219 993d
00000160: fbe0 eb3d a65d 9c40 d048 afbb 74b3 7a3d
00000170: 89fc acbd 904e 093d 7001 41bc fdf9 a5bd
00000180: 50d4 a73d 40ad c03a 2668 2ebd 6848 6c40
00000190: 304e 0c3c e4b7 2d3d e544 7fbd be7e af3d
000001a0: a080 7d3c e869 83bd 4596 74bd 05f9 b6bd
000001b0: cfa1 1cbd 4bf1 1fbd 4a48 6540 6f34 e0bf
000001c0: b4ad 84bf c07f 15be e70a f13d 8691 52c0
000001d0: b2bd 18be 7c8b a6be 7c4d 7fbe e5d2 61c0
000001e0: 0999 23bd 64dc 6640 8324 e9bf caa4 c9bf
000001f0: 1995 a5bf 3aef 023e 9a46 2ebf c9b4 0e3e
00000200: 95cd 70bd 611f 81c0 a848 113d 3d1a aabd
00000210: 7935 4740 3c69 fabf a41c 013f 7937 b7bf
00000220: 59b2 98bf 305d 4dc0 a999 25be 54e7 6ac0
00000230: b073 b3bd b00b b33c f038 573d 4d96 9040
00000240: a606 8940 c005 6d3f 2682 b83e 02a0 82bf
00000250: 80c4 34c0 5762 46c0 2977 4ebd 6cb5 343d
00000260: 3981 65bd 10ed a53c cc73 863d 30dc e9bb
00000270: a1d3 f5bf 87f6 063f 3335 25c0 cef3 38c0
00000280: f826 0c3d b800 053c 800f 0cbb 3670 853d
00000290: e0e2 933c 4879 9dbc bce3 86bf cb60 a6bf
000002a0: 82a5 92bf 8337 1dc0 40fd 4a3c eef4 01bd
000002b0: 9983 b3bd 2058 573d a8b1 cc3c d873 82bc
000002c0: 5fd0 5f40 6672 56bf 851d d5bf 7b23 0ac0
000002d0: c1be 46bd 84ef 9a3d 04b1 063d 2c7a c23d
000002e0: b02a b63c 2088 62bc 1ce2 a43d 0c23 7a3d
000002f0: 442f a0bf f23c d9bf bccf 10bd 5817 0b3d
00000300: 0092 8db9 a83b f8bc 74f9 a7bc 080e ecbc
00000310: 1ad7 43bd a4e4 313d c1b3 a3bf b657 b8bf
00000320: b4fe aa3d 11f2 b4bd 0040 013b 00be d439
00000330: d043 763d 461b bfbd dc22 a93c f516 16bd
00000340: a861 58bc dcf2 9fbf 0ea8 68bd d6df 933d
00000350: 603c b23d e460 03bd 6070 503c 70f3 a53d
00000360: 584c 91bd 98d6 6d3c 5dd6 2fbd 8996 97bd
00000370: d79b 263d 2ce5 a3bf 53e4 c7bd 75bb c7be
00000380: a8d6 83bf e3dd 3240 55ce a23d 18d6 80be
00000390: 07c1 a83d afd4 5740 f7dc b0bd 07b5 65bf
000003a0: 1b79 c13f 7ad7 423f b4f3 983f 75e5 0dbf
000003b0: 9e01 09be 3cb6 a3bd 0af5 c6be 75cd 6240
000003c0: 8054 a23a f4b7 84bd d770 92bf fad9 0940
000003d0: c371 1dbf a653 ab3f 4990 bc3f 7b2d 3240
000003e0: 9079 cc3b a92b 5640 2c79 493d 2c9b 543d
000003f0: 10e6 c0bd cabe 2cc0 d9da 1bc0 9610 4cbf
1.0256858 1.4342012 -2.070265 -4.1117415 2.825427 4.4258866 0.26665893 0.2592931
0.04857624 3.3861177 0.023640677 1.0946586 0.17764997 -0.059220403 1.8150015 -0.5132768
5.586513 -0.054568302 0.12395774 4.260912 0.08958736 -0.08572194 0.8470948 1.2871941
-1.4931122 0.45407116 1.0103576 1.0931203 0.008991932 4.829092 0.0524396 0.031309932
0.059387565 -0.14803225 0.41538876 1.4507959 3.051488 1.1791779 4.157316 5.630494
0.03704594 -0.05751928 0.039449707 0.048511937 0.09371492 -0.07315374 1.2638545 7.623964
4.349363 5.4972153 0.031153142 0.03132677 -0.086593136 -0.015526995 -0.00793577 0.089515164
1.1960721 0.58147043 8.490372 6.334392 -0.015255958 0.030289918 0.062247545 -0.06832193
-0.0598608 -0.08845688 3.659494 0.3837705 1.286207 5.90487 -0.09199507 0.06882188
-0.09090389 -0.038096752 0.030951232 -0.012022831 0.07978088 0.003463395 0.79921484 6.0237494
0.033969566 0.02784577 -0.06876071 -0.06924692 0.003235124 -0.06298998 -0.031406038 0.07475485
0.11517521 4.8864317 -0.005349256 0.061206296 -0.08446605 0.03352219 -0.011780128 -0.08104322
0.08194792 0.001470007 -0.042579792 3.6919193 0.008563563 0.0424117 -0.062321562 0.08569096
0.015472561 -0.064166844 -0.05971362 -0.089342155 -0.03824025 -0.039048474 3.5825372 -1.7516001
-1.036551 -0.14599514 0.117696576 -3.290132 -0.14916113 -0.32528293 -0.24931902 -3.528497
-0.039940868 3.6072016 -1.8214267 -1.5753415 -1.2936126 0.1278657 -0.6807648 0.13936152
-0.05878981 -4.0350804 0.03546968 -0.08305786 3.1126387 -1.9563365 0.5043433 -1.4313804
-1.1929427 -3.2088127 -0.16171898 -3.6703691 -0.087623 0.021856159 0.052544534 4.5183473
4.2820616 0.925869 0.36036795 -1.020508 -2.8244934 -3.0997522 -0.05040661 0.04411833
-0.05603144 0.020254642 0.06565055 -0.007136844 -1.9205209 0.5271992 -2.581372 -2.8898807
0.03421685 0.008117847 -0.0021371543 0.06515543 0.018052518 -0.01922287 -1.0538249 -1.2998289
-1.1456759 -2.4565132 0.012389481 -0.031727724 -0.08765335 0.052574277 0.024987057 -0.01592438
3.497093 -0.8376831 -1.6649634 -2.1584156 -0.04852176 0.07565215 0.03288366 0.09495959
0.022237152 -0.0138264 0.080509394 0.06106858 -1.2514424 -1.6971724 -0.03535436 0.03395781
-0.00027002394 -0.030301884 -0.02050469 -0.028815284 -0.04781256 0.04343094 -1.2789232 -1.4401767
0.08349362 -0.08835233 0.0019721985 0.00040577352 0.060123265 -0.09331374 0.020646505 -0.036642987
-0.013206877 -1.249599 -0.056800894 0.07220428 0.08702922 -0.032074824 0.012722105 0.08103073
-0.070946395 0.014516495 -0.042929042 -0.07401759 0.040675964 -1.2804313 -0.09760346 -0.39010206
-1.0299883 2.794793 0.07949511 -0.2516334 0.08239942 3.3723562 -0.08635896 -0.8972935
1.5115083 0.7611004 1.1949372 -0.5542825 -0.13379523 -0.07993743 -0.38858825 3.54379
0.0012384802 -0.06480399 -1.1440686 2.1539292 -0.6150171 1.3384902 1.4731532 2.784026
0.0062400773 3.3464148 0.049187824 0.051905796 -0.09418881 -2.6991448 -2.4352324 -0.7971281

bias f4 [64]
00000000: c82d 773f 5258 05bf 46ab ea3d 4f41 53bf
00000010: 5282 97bc b3f6 003e 9d7a dbbe 40d9 55bf
00000020: dc8d 193f eda9 78be eaf9 05bf 1c68 58bf
00000030: 4953 fd3d 2e2f 213f c28e 47be 1163 afbd
00000040: 32d1 66be f4f7 9ebf f24c a83f 58f3 c33e
00000050: d815 62bf 0cdc 24bf 6207 c2bc 74d5 92be
00000060: 794a 1fbf f10b 323f d61c cdbe c8a7 843d
00000070: cf73 a3be e3c8 b93f e225 c2bd c0c8 89bf
00000080: d29b cbbe 9440 fcbe e717 36bf dc69 99be
00000090: 59ae b33f 582d 2abf 0ee9 3dbf 99b9 e53e
000000a0: 9a5e 0240 1a3d 1b3f 8a7f 09bf 2f9c 0fbf
000000b0: 78a1 03bf 3eac 84be abac b2be 5541 80bd
000000c0: 449b 46bf 73f7 d5bc 8866 db3e e189 03bf
000000d0: e757 873f b353 bebe decb 2abf d662 a7be
000000e0: eb6f dbbe ffdf ad3f 1fce df3f 4eca ef3f
000000f0: 6899 823f 6846 03bf d558 4dbf 8091 d03e
0.9655423 -0.5208789 0.11458449 -0.8252153 -0.018494759 0.12594108 -0.42866984 -0.8353462
0.59982085 -0.24283572 -0.52334464 -0.8453386 0.12369401 0.62962615 -0.19488052 -0.08563817
-0.22540739 -1.2419419 1.3148482 0.38271594 -0.8831458 -0.64398265 -0.023685161 -0.28678477
-0.6222301 0.6954947 -0.40061063 0.06477314 -0.31924292 1.4514431 -0.09479882 -1.0764389
-0.3976732 -0.4926802 -0.7113022 -0.29963577 1.4037582 -0.6647544 -0.7418374 0.44868162
2.037024 0.6064011 -0.53710234 -0.5609769 -0.51418257 -0.2591266 -0.3489736 -0.06262461
-0.77580667 -0.02611897 0.42851663 -0.5138226 1.0573701 -0.37173232 -0.66717327 -0.32692593
-0.42858824 1.3583983 1.7484778 1.8733613 1.0203066 -0.51279306 -0.8021367 0.40736008

weight f4 [64, 3]
00000000: 5d17 2ebe 9286 8140 12b6 6cc0 8f06 4f3f
00000010: 083e cdc0 fce0 d640 dbbb 0440 519d a23f
00000020: feed c2bf 1391 bcbe 035b c93f b531 babf
00000030: bca3 70bd 4b98 3a40 ccc0 fbbf dd32 213f
00000040: 51ea 9ac0 f223 8540 6ff5 72c0 e200 62c0
00000050: 0551 4c40 ae46 0a40 3258 223f 1af7 96bf
00000060: f7a1 2a40 376a 0140 79c6 d9bf b30a 643e
00000070: 62b3 a1c0 4e65 a740 0f77 fd3f 66a3 b9c0
00000080: 911c bf40 22f7 f4bf 639f 40c0 4ce9 1f40
00000090: e381 3a3f e6ef b1c0 4965 a640 1d55 6fbe
000000a0: f72f 7e40 7aa3 8ac0 635c 2e40 c0ce af3e
000000b0: 1043 d3be 8ada 24c0 6edd b53e f9ff 6ebf
000000c0: c156 713f 82fe c9c0 bd51 c940 5b0d a5bf
000000d0: 927e b8be 7318 af3e c432 f1bd ea6b 9340
000000e0: 7f73 95c0 a97c 98bd 7a85 3740 c31a 1bc0
000000f0: 35ae 34bf e3f4 03c0 03fb 1840 a8d3 edbe
00000100: 47b9 adbf e8f5 ac3f cf52 0e40 e0b2 eb3f
00000110: 38a9 d5bf 8079 8e3f 3277 e2c0 ef70 e340
00000120: 6db7 ba3e 1bfe ab3f 1e07 b2bf 28a5 0cbe
00000130: 093e 5f40 5cff 47c0 dbab 1d3f acc3 ddc0
00000140: 54ec cc40 ef07 0740 5730 113d 8163 7d3d
00000150: e766 58be 47d1 1540 39a4 dcbf 3bab 14be
00000160: 6940 8640 3fe1 4cc0 bad2 b7be 0a4f 7ebf
00000170: 7c80 8f3e 851a c3bf c4cc 9d3e ef43 e13d
00000180: 1aff bb3e b5f3 c2c0 777f b240 1266 ddbf
00000190: 9560 8b3f 77fa b9bf 8f3e 233f d4d5 dfc0
000001a0: fa5b d840 bbc1 eabf ee54 f03f 437a afbf
000001b0: 3b7a d1bd f19c 8f40 65ac 5ac0 fc6e 10bf
000001c0: 7af7 ed3f 45a6 0bc0 7b61 febf 3eef 293f
000001d0: d54a 08bf 7d4e 2f40 8a9f 863e 236b 0fbf
000001e0: 500d 1abe bc7f 9f40 ee64 9cc0 119d 053f
000001f0: 0fe0 2f40 837b 4dc0 46d1 653f 37e7 d6c0
00000200: b37b c040 4812 0ac0 866b 73c0 6748 7540
00000210: 4a73 febe 58a6 b53f a6fb 55bf 98db f2bf
00000220: 4bb2 75c0 7072 6840 2a42 acbe 7961 a7bf
00000230: 2746 723f 2573 39c0 d2e6 fb3e c776 e8be
00000240: c49d 873f 09a5 9d3e fd4c 2fbf 6dbc 7a40
00000250: e72f 083f f91b 0bbe 8a18 d3bd 656b 4a40
00000260: cf05 2bc0 93cc 6540 5fdc e03e 63cc 83bf
00000270: 1c99 cdbd 7656 7840 dd28 58c0 1bd6 01be
00000280: 7b0f 7fbd d831 76bd 1e00 06c0 9a0d e33e
00000290: 61b0 03bf fd99 a83f 13bc afc0 d1c8 b740
000002a0: ea55 b23e 12ce a3c0 4025 8e40 5a94 0dbe
000002b0: c836 8140 70dc 82c0 f15c 2dbe 92ed 9740
000002c0: dfe9 8cc0 919e 1dbe 6d70 9640 c4e4 89c0
000002d0: b120 48be 5d65 6640 8c99 36c0 4938 5ac0
000002e0: 02a6 1cc0 1390 3140 62af e5bf 2313 803f
000002f0: 7d23 9cbf 0631 6fbe 7296 3640 a1ca 45c0
-0.170011 4.047677 -3.6986127 0.8086938 -6.413822 6.714964 2.0739658 1.2704259
-1.522888 -0.36829433 1.57309 -1.4546419 -0.0587499 2.9155452 -1.9668212 0.62968236
-4.841103 4.160638 -3.79623 -3.531304 3.192445 2.160564 0.63415825 -1.179416
2.6661355 2.0221078 -1.7013694 0.22269706 -5.0531473 5.2311163 1.9801959 -5.801196
5.972237 -1.9137919 -3.0097282 2.4986143 0.7285444 -5.5605345 5.199864 -0.23372312
3.9716775 -4.3324556 2.7243888 0.34337425 -0.41262102 -2.5758386 0.355205 -0.93359333
0.94273 -6.312318 6.291228 -1.2894701 -0.36034065 0.3419834 -0.11777261 4.606923
-4.6703486 -0.07445652 2.8675218 -2.4235084 -0.7057832 -2.0618217 2.3903205 -0.46450543
-1.3572167 1.3512545 2.2238042 1.8413963 -1.6692266 1.1130829 -7.07705 7.107536
0.36468068 1.3436922 -1.3908422 -0.13734877 3.4881613 -3.124961 0.61590356 -6.9301357
6.4038486 2.1098592 0.03544649 0.061862472 -0.21133004 2.3408983 -1.7237617 -0.14518444
4.1953626 -3.201248 -0.3590296 -0.99339354 0.28027713 -1.5242468 0.30820286 0.109992854
0.36718065 -6.0922494 5.5780597 -1.7296774 1.088885 -1.4529561 0.6376733 -6.994852
6.7612276 -1.8340372 1.8775918 -1.3709186 -0.10228392 4.487908 -3.4167721 -0.5641935
1.8591149 -2.1820233 -1.9873499 0.6638068 -0.53239185 2.7391655 0.26293594 -0.5602285
-0.15044141 4.9843426 -4.8873205 0.5219279 2.7480505 -3.2106636 0.8977245 -6.7157245
6.0151 -2.1573658 -3.8034377 3.832544 -0.49697334 1.4191389 -0.8358711 -1.8973265
-3.8390071 3.6319847 -0.3364423 -1.3076621 0.94638294 -2.8976529 0.4919954 -0.4540312
1.0595021 0.30789974 -0.6847685 3.9177506 0.53198093 -0.1358489 -0.10307415 3.1628048
-2.6722295 3.5906112 0.4391813 -1.0296749 -0.10038969 3.8802772 -3.377494 -0.12679331
-0.062270623 -0.06010613 -2.0937572 0.44346315 -0.5144101 1.3171993 -5.4917083 5.7432637
0.34831172 -5.118905 4.442047 -0.13826123 4.037937 -4.089409 -0.16929986 4.7477503
-4.4035487 -0.1539252 4.701224 -4.3091755 -0.19543721 3.5999367 -2.8531218 -3.4096854
-2.4476323 2.7744186 -1.7944148 1.000584 -1.219833 -0.23358545 2.8529325 -3.0904925

bias f4 [64]
00000000: ea33 4f3f d908 9abf a119 053f 46fe 973f
00000010: 67a1 873f e07d 7dbf 5fcb f33e cd95 683f
00000020: 4bf6 823f 75b8 78bf 7950 ecbf 568d 4d3e
00000030: 6b4f 92bf 73b3 3b3f 646b 473f 6f07 6cbd
00000040: 0002 9abf cb5d ee3e b57c 653f 5d8d 7d3f
00000050: 45f2 8240 e403 4040 1400 0f3f a9ce b8bf
00000060: 2e87 16bf b8ae 4c3f bcc4 9bbf 5ce4 773e
00000070: f2c2 713f 1fad 2b3f abf1 4740 0122 5b3f
00000080: 0c35 66bf af6b 513f 2823 9abf 14da a93f
00000090: 34f8 6d3f a69b f23e b7ff c03f 507c b0bf
000000a0: ce7b 2e3f 14b6 d1bf 6d3f a2bf 2021 bc3e
000000b0: 209e 323f b8fb 273f e08d 1040 55cc 1dbd
000000c0: 3a3a 85bd 9dc8 8c3f b0a8 613f 9ff2 843f
000000d0: 7ac6 683f 3830 0f40 2f6c 233f f461 9abf
000000e0: 2631 54bf bffb 473f f0f5 0e3f 95a9 273f
000000f0: c773 a53e 79f9 a63d 3e12 c73f 2b84 a73e
0.8093859 -1.203395 0.5199223 1.1874473 1.0596131 -0.99020195 0.47616097 0.9085358
1.0231413 -0.9715646 -1.8462058 0.20073447 -1.1430486 0.7332069 0.7789824 -0.057624277
-1.203186 0.46555933 0.8964341 0.9904383 4.092074 3.0002375 0.55859494 -1.4438068
-0.5880002 0.799541 -1.2169414 0.24208206 0.9443809 0.67061037 3.1241252 0.8559876
-0.89924693 0.8180494 -1.2041979 1.3269677 0.9295685 0.47384375 1.5078038 -1.3787937
0.6815766 -1.6383691 -1.2675606 0.36744022 0.6977253 0.6561847 2.2586594 -0.038524944
-0.065052465 1.0998722 0.8814802 1.0386542 0.9092785 2.237318 0.6383695 -1.2061143
-0.82887495 0.7811851 0.5584402 0.65493137 0.32314894 0.08153052 1.5552442 0.32718024

weight f4 [4, 64]
00000000: b04d 3cbf e3f1 813e 1887 92bf 32ec 23bf
00000010: 7ee1 55bf f04d 21bf ac3a 883e 1081 42bf
00000020: 34a2 debf 7942 d63d e6cc 06be c600 ba3d
00000030: 329b 71be 898c 21bf d6b4 a2bf 5d9a 7c3d
00000040: f4d6 10be a156 0c3e ac4b 94bf 5580 e5be
00000050: 3ccc eebd 7faf ccbe a608 96bf 7067 d43d
00000060: 1265 4cbe 5b2f d5be f1ce 58be b455 f0bf
00000070: 97e2 13bf 1eeb 83bf cb36 19bf e988 d13d
00000080: 874f 3f3e a62f bcbd ab73 33bd eb5a a6be
00000090: f382 7bbf 3089 20bf c5bc 0abf 6702 04c0
000000a0: 57bb 83bf e615 bdbe c690 593e c9d2 d33e
000000b0: 347d e4be 3360 c53e 769f 9fbe 86ba 60be
000000c0: acc7 4bbe 39aa c0bf 86f0 fdbe 8980 86bf
000000d0: cef4 1dbf caba f0be b0e5 bc3d a63f a23d
000000e0: 5b9b 973e 7411 4ebf 7a2f 48bf 77b7 61bf
000000f0: 9feb 2dbf fb91 e03e 77da b3be 9692 12bf
00000100: 5737 02c0 2184 e03f d046 91be 43e5 3fbf
00000110: c6b5 bdbf 58fe 983f 92ae 6e3f 9485 493d
00000120: 8f18 e2be 876b 933f d008 b53f eb6e 573f
00000130: a11d c33f 3e62 f7bf 9854 063e 04d9 3ebf
00000140: 19e2 d93f a44d a23e 3f0d 23c0 4a7b ccbf
00000150: 243c 32c0 bd5d e3bf 3641 e4be 6082 ee3f
00000160: 6bc6 683f 127e c0bf 4d3b ae3f a471 913f
00000170: 549c 9abf 1f11 05c0 7c50 e7bf c268 2d3f
00000180: 31e5 c93f 66a4 8dbf acf3 a93f e626 f4bf
00000190: b5ac 27c0 998c 5ebf ac49 cabf 58a8 a23f
000001a0: 20d5 13c0 49e3 b73f 01d3 f63f c4a5 983f
000001b0: e5f8 34bf 07a3 913f bc65 98bf cef5 3dbf
000001c0: b916 10bf f51b 733e 0e25 b4bf 0e13 013e
000001d0: 0fe7 01c0 c95f 9abf e20f 26bf f636 d23f
000001e0: 8605 c33f 2d06 f6bf 2482 edbf 4902 05c0
000001f0: 6d57 7cbf a107 293f d314 b2bf d480 47bf
00000200: f370 d53f 1dcc ccbf aa8f a03f d140 103f
00000210: 6dfe a13f 203c 57bf 140c 95bf 78ce 383f
00000220: 6656 c43f 071b 8abf e944 71bf 00f7 3fbf
00000230: ad91 97bf 473e b63f f7f4 583f 24ba ff3e
00000240: 067a c6bf 8cae 64be fb85 0940 b607 bc3f
00000250: ba0e 1d40 238b b23f 1282 9a3f 8112 cbbf
00000260: 03d6 dbbe 503b b43f 996c a1bf 5870 e43d
00000270: 1522 943f 5493 0a40 40f4 cd3f 2eb3 9ebe
00000280: b78b bdbf 449f 4d3f 8c44 81bf 3003 ad3f
00000290: 5f7c 0c40 4a4c 373f b859 703f 7c8d cd3d
000002a0: 8df1 1240 b349 7bbf 7fa3 e0bf 9b11 9cbf
000002b0: b4bc 363f 78ab a4bf d9df 8f3f 8a91 e93e
000002c0: cdbe 823f 26e0 523f 7ef3 c03f e1b1 2a3f
000002d0: 77fe e23f d714 963f 1345 b43e 1a28 b2bf
000002e0: 7bf3 c6bf f20e f43f 799a 0c40 d35d 1440
000002f0: b816 c83f a4f9 8dbf 7ade 803f 8726 953f
00000300: f6d3 c2be e2c9 9abd ded9 9dbf e64d bfbd
00000310: 925f 32be 9891 f0be a789 d93e a8fc 54bf
00000320: 64b9 acbf e785 0abc 27a2 c0be d447 553e
00000330: 1560 87be aded 57be eb81 bebf 6733 043e
00000340: 41b7 3fbe d32a 313d 1dc1 f5be cba1 e2be
00000350: 7d94 6cbe 4788 d5be 6008 a0bf f0be fabd
00000360: 4808 f2be ce72 1ebf 6edb 5dbe 7afd b0bf
00000370: 20c5 84be 4aa2 38bf 4a8e 4dbf fca1 47be
00000380: eaf9 a13d 97c4 47bd 4394 c8bd cb3f 2c3d
00000390: f454 1fbf be9f dbbd 1e03 02bd ed30 0ac0
000003a0: 7b7a 83bf c45f 08bf 8594 3dbd 81cd 9e3e
000003b0: a168 26bf 7a40 a53e b95a 19bf 065f 7a3d
000003c0: 5f09 12bf 03da bebf b09d 19bf 31c6 9dbf
000003d0: 1e2e 41bf 4275 29bf 57b6 debd 88d6 80be
000003e0: ea98 eebc 6726 4ebf de25 84bf 52be 57bf
000003f0: a8a6 32bf e436 a53e 8a98 423c 0f3a 24bf
-0.7355604 0.25379857 -1.1447477 -0.6403228 -0.835472 -0.6300955 0.26607263 -0.75978184
-1.739325 0.104618974 -0.131641 0.09082179 -0.23594359 -0.63105065 -1.2711437 0.06167065
-0.14144498 0.13704921 -1.1585593 -0.44824472 -0.11660048 -0.39977643 -1.1721389 0.10371292
-0.1996043 -0.41637692 -0.21172692 -1.8776155 -0.57767624 -1.0306127 -0.5984923 0.10231192
0.18682681 -0.09188776 -0.04381148 -0.3249124 -0.9824669 -0.6270933 -0.5419429 -2.0626466
-1.0291547 -0.3693077 0.21246633 0.41371754 -0.44626772 0.38549957 -0.31176347 -0.21946153
-0.19900388 -1.5051948 -0.49597567 -1.0507976 -0.6170167 -0.4701751 0.09223497 0.07922296
0.29610714 -0.8049538 -0.78197443 -0.8817057 -0.67937654 0.43861374 -0.35127613 -0.5725492
-2.0346277 1.7540323 -0.28374338 -0.749592 -1.4821098 1.195262 0.93235123 0.049199656
-0.44159362 1.151719 1.4143314 0.8415362 1.5243417 -1.9326856 0.13118207 -0.7454989
1.7022125 0.3169986 -2.5476835 -1.5975125 -2.7849207 -1.7762982 -0.44581002 1.8633537
0.9092776 -1.5038474 1.3611847 1.1362805 -1.2078958 -2.07917 -1.8071437 0.6773797
1.5773069 -1.1065795 1.3277488 -1.9074371 -2.6199162 -0.86933285 -1.5803733 1.2707624
-2.309883 1.4366237 1.9283143 1.1925588 -0.7069228 1.1377877 -1.1906047 -0.74203193
-0.5628467 0.23741134 -1.4073808 0.12604925 -2.0297277 -1.2060481 -0.64867985 1.6423023
1.5236061 -1.9220635 -1.8555341 -2.0782645 -0.985709 0.66027266 -1.3912605 -0.7793095
1.6675094 -1.599979 1.2543843 0.563489 1.265577 -0.8407612 -1.1644311 0.72190046
1.5338867 -1.0789498 -0.94245774 -0.7498627 -1.1841332 1.4237756 0.84748787 0.49946702
-1.5505989 -0.2233221 2.1488025 1.4689853 2.4540238 1.3948711 1.2070944 -1.5865022
-0.42936715 1.4080601 -1.2611266 0.1115424 1.1572901 2.1652422 1.6090164 -0.30996078
-1.4808263 0.80321145 -1.0099044 1.3516598 2.195091 0.7160078 0.938869 0.10036752
2.295993 -0.9815933 -1.7549895 -1.2192873 0.7138169 -1.2864828 1.1240188 0.4561885
1.0214478 0.82373273 1.5074308 0.6667767 1.7733907 1.172511 0.3520895 -1.3918488
-1.5543054 1.9067061 2.1969283 2.3182266 1.5631933 -1.1091809 1.0067894 1.1652383
-0.38052338 -0.07558037 -1.2332113 -0.0934103 -0.1741927 -0.4698608 0.42487833 -0.8319802
-1.3494077 -0.008454776 -0.37623712 0.20828182 -0.26440492 -0.2108676 -1.4883398 0.12910233
-0.1872225 0.04325373 -0.47998896 -0.44264063 -0.23103519 -0.41705534 -1.2502556 -0.1224345
-0.47271943 -0.6189393 -0.21665737 -1.3827355 -0.25931644 -0.72122633 -0.8029524 -0.19495386
0.079089954 -0.048771467 -0.09793904 0.042053025 -0.62239003 -0.10723828 -0.031741254 -2.1592362
-1.0271753 -0.53271127 -0.046284217 0.31016162 -0.650034 0.32275754 -0.59904057 0.061125778
-0.5704555 -1.4910282 -0.6000624 -1.2326108 -0.75460994 -0.66194546 -0.10874622 -0.25163674
-0.02912565 -0.8052735 -1.0324056 -0.8427478 -0.6978555 0.3226844 0.011877188 -0.6415109

bias f4 [4]
00000000: a99d 04bf 34a9 d63d 7cdd 9d3e 45b5 0fbf
-0.5180307 0.10481492 0.30833042 -0.5613597

scaling_factor f4 [1, 3]
00000000: cdcc cc3d cdcc cc3d 0ad7 233c
0.1 0.1 0.01
